…
data_t.shape  =  (5000, 29852)
data_s.shape  =  (5000, 29852)
n_cases =  5000
Temp shape:  (5000, 1, 29852, 2)
Training with  4900  points
u0_train.shape =  (4900, 101)
type of u0_train =  <class 'numpy.ndarray'>
u0_testing.shape =  (100, 101)
s_train.shape =  (4900, 1, 29852, 2)
s_testing.shape =  (100, 1, 29852, 2)
xy_train_testing.shape (29852, 3)
Model: "sequential"
_________________________________________________________________
 Layer (type)                Output Shape              Param #   
=================================================================
 gru (GRU)                   (64, 101, 256)            198912    
                                                                 
 gru_1 (GRU)                 (64, 128)                 148224    
                                                                 
 repeat_vector (RepeatVector  (64, 256, 128)           0         
 )                                                               
                                                                 
 gru_2 (GRU)                 (64, 256, 128)            99072     
                                                                 
 gru_3 (GRU)                 (64, 256, 256)            296448    
                                                                 
 time_distributed (TimeDistr  (64, 256, 1)             257       
 ibuted)                                                         
                                                                 
=================================================================
Total params: 742,913
Trainable params: 742,913
Non-trainable params: 0
_________________________________________________________________
Model: "sequential_1"
_________________________________________________________________
 Layer (type)                Output Shape              Param #   
=================================================================
 dense_1 (Dense)             (None, 256)               1024      
                                                                 
 dense_2 (Dense)             (None, 256)               65792     
                                                                 
 dense_3 (Dense)             (None, 256)               65792     
                                                                 
 dense_4 (Dense)             (None, 256)               65792     
                                                                 
 dense_5 (Dense)             (None, 256)               65792     
                                                                 
 dense_6 (Dense)             (None, 512)               131584    
                                                                 
 reshape (Reshape)           (None, 256, 2)            0         
                                                                 
=================================================================
Total params: 395,776
Trainable params: 395,776
Non-trainable params: 0
_________________________________________________________________
y_train shape: (4900, 1, 29852, 2)
Compiling model...
'compile' took 0.325882 s

Training model...

Step      Train loss    Test loss     Test metric                       
…
